…
id":"1HvvOhPJU1pL","executionInfo":{"status":"ok","timestamp":1628217540152,"user_tz":-540,"elapsed":489,"user":{"displayName":"gilho chae","photoUrl":"","userId":"00652279063392139011"}},"outputId":"c0303a0d-f79d-44be-f58c-7f659497c44f"},"source":["model.summary()"],"execution_count":11,"outputs":[{"output_type":"stream","text":["Model: \"sequential_2\"\n","_________________________________________________________________\n","Layer (type)                 Output Shape              Param #   \n","=================================================================\n","conv2d_1 (Conv2D)            (None, 26, 26, 32)        320       \n","_________________________________________________________________\n","max_pooling2d_1 (MaxPooling2 (None, 13, 13, 32)        0         \n","_________________________________________________________________\n","conv2d_2 (Conv2D)            (None, 11, 11, 64)        18496     \n","_________________________________________________________________\n","max_pooling2d_2 (MaxPooling2 (None, 5, 5, 64)          0         \n","_________________________________________________________________\n","conv2d_3 (Conv2D)            (None, 3, 3, 64)          36928     \n","_________________________________________________________________\n","flatten (Flatten)            (None, 576)               0         \n","_________________________________________________________________\n","dense (Dense)                (None, 64)                36928     \n","_________________________________________________________________\n","dense_1 (Dense)              (None, 10)                650       \n","=================================================================\n","Total params: 93,322\n","Trainable params: 93,322\n","Non-trainable params: 0\n","_________________________________________________________________\n"],"name":"stdout"}]},{"cell_type":"code","metadata":{"id":"CLgz-lgMU_nD","executionInfo":{"status":"ok","timestamp":1628217607860,"user_tz":-540,"elapsed":473,"user":{"
…
